.dart_tool/chrome-device/Default/optimization_guide_prediction_model_downloads/75091651-581c-4ac1-8bb8-eaf2d98d975f/model.tflite (tflite, 407748 bytes, 166 tensors)

context_transformer_0/bottleneck_input/norm/add f4 [32]
0	0x3d9067ca	0.07051046
1	0x3cf0427b	0.029328575
2	0x39f13b8c	0.00046011468
3	0x3d4cf412	0.05003745
4	0xbcefdaca	-0.029279131
5	0xbdad482e	-0.08461033
6	0x3dbbc892	0.09169115
7	0x3dd55c2c	0.10417971
8	0x3da7dbba	0.081962064
9	0x3d7e9a46	0.062158845
10	0xbbe2eb44	-0.0069250185
11	0xbcdcdc3e	-0.026960488
12	0xbbd4d50e	-0.0064951247
13	0x3add5456	0.0016886096
14	0xbe116380	-0.14198112
15	0xbd25cf8f	-0.040481146
16	0xbcd327ea	-0.025775868
17	0xbc93e1be	-0.018051978
18	0xbd966754	-0.07343927
19	0x3c5a8a74	0.013338674
20	0xbcac90d6	-0.021065157
21	0x3d14c0d2	0.0363167
22	0xbe88f6f2	-0.26750904
23	0xbd1c04a9	-0.03809038
24	0xbb3cd400	-0.0028812885
25	0x3d92d2fa	0.07169147
26	0xbba6dc77	-0.0050921994
27	0x3b728d94	0.0037010657
28	0x3dda33d7	0.10654419
29	0xbd21f280	-0.039537907
30	0x3d74a7ed	0.05973046
31	0xbcec6aff	-0.028859613

context_transformer_1/bottleneck_input/norm/add f4 [32]
0	0x3ddba693	0.10725131
1	0xbc0a016c	-0.008423191
2	0x3db73ce6	0.08947162
3	0xbdf7e772	-0.121046916
4	0x3e351119	0.17682303
5	0xbdd8777c	-0.10569665
6	0xbdfbe6a5	-0.12299851
7	0xbbb43699	-0.0054996726
8	0x3e6418b6	0.22275051
9	0xbd8ae24c	-0.06781444
10	0xbd4dfdb9	-0.050290797
11	0xbe365380	-0.1780529
12	0xbd5414d2	-0.05177767
13	0x3d3558fe	0.044274323
14	0x3e179390	0.14802384
15	0xbe0280a4	-0.12744385
16	0xbe597844	-0.21237284
17	0xbd07dffc	-0.033172593
18	0x3dcade44	0.09905675
19	0x3a0f08c0	0.0005456321
20	0x3d0c7b36	0.03429719
21	0xbe5113b6	-0.20417675
22	0x3c8afd86	0.016966593
23	0x3d8729f2	0.06599797
24	0xbe3a7c2c	-0.1821143
25	0xbbe95770	-0.007121019
26	0x3dc2c38b	0.09509953
27	0x3e0cc325	0.13746317
28	0xbc6044ac	-0.013688248
29	0xbcbe10fa	-0.023201454
30	0xbd05faa8	-0.032709748
31	0x3dc7b68d	0.09751616

mention_transformer_0/bottleneck_input/norm/add f4 [32]
0	0xbe1d49fc	-0.15360254
1	0x3aa13fd6	0.001230235
2	0x3e0b0f28	0.1358
3	0xbe6c0b8e	-0.23051283
4	0x3dfd33ca	0.123633936
5	0xbe357f3c	-0.17724317
6	0xba08d1ea	-0.0005219268
7	0xbdbfe326	-0.09369497
8	0xbd4b28ce	-0.04959946
9	0xbc925826	-0.017864298
10	0xba24b724	-0.00062833936
11	0xbe452186	-0.1925107
12	0x3c8de92a	0.017323095
13	0x3d5faa27	0.05460563
14	0x3e14b842	0.14523414
15	0x3cebbbfe	0.028776165
16	0x3d4e1bf8	0.05031964
17	0x3d8884ae	0.06665932
18	0x3e2b8391	0.16749407
19	0xbb62475b	-0.0034527394
20	0xbd33a17f	-0.043855187
21	0x3e5cf058	0.21576059
22	0xbdd0f698	-0.10203284
23	0x3e0070a4	0.12542969
24	0xbd0cc29f	-0.034365293
25	0x3e0e8c64	0.13920742
26	0xbcb9dac8	-0.02268733
27	0xbdaf7dc6	-0.08568911
28	0xbe216635	-0.15761645
29	0xbe1bcbbe	-0.1521444
30	0x3b13bca3	0.0022542856
31	0xbe335a1f	-0.17514847

mention_transformer_1/bottleneck_input/norm/add f4 [32]
0	0xbdc2e927	-0.095171265
1	0xbd90e282	-0.07074453
2	0xbd805cbd	-0.062676884
3	0xbd679086	-0.056534313
4	0xbddb251e	-0.10700439
5	0x3ec5732a	0.38564426
6	0x3e872a02	0.26399237
7	0xbd29f7c0	-0.04149604
8	0xbe05bc70	-0.13060164
9	0xbe9da83b	-0.30792412
10	0xbd3dbbf4	-0.046321824
11	0xbe88f5aa	-0.26749927
12	0x3e9b1e0a	0.30296355
13	0x3db7733c	0.08957526
14	0xbd5441fe	-0.051820748
15	0xbe20423e	-0.1565027
16	0xbdc0c10a	-0.09411819
17	0x3e111456	0.14167914
18	0x3edd7e36	0.43260354
19	0xbddccd0f	-0.10781299
20	0x3e80f216	0.25184697
21	0x3cfe39a0	0.031033337
22	0xbd8e8dde	-0.06960653
23	0xbeaa9988	-0.3332026
24	0x3dd21c60	0.10259318
25	0x3f02077c	0.5079267
26	0x3ecb3ca2	0.39694697
27	0x3ef0c6c8	0.47026658
28	0xbe09dcf3	-0.13463192
29	0xbd16030a	-0.036623992
30	0x3df73f8b	0.12072667
31	0xbe2903dd	-0.1650538

context_transformer_0/attention/value/add;context_transformer_0/attention/value/einsum/Einsum;context_transformer_0/attention/value/add/ReadVariableOp/resource f4 [32]
0	0x3d85b80f	0.06529247
1	0x3d56276e	0.052283697
2	0xbdc99324	-0.09842518
3	0x3de447ab	0.11146482
4	0x3d2d3ab5	0.042292316
5	0xbccde8ff	-0.025135515
6	0x3daabd66	0.08336906
7	0xbd1d248b	-0.03836493
8	0x3c4b6917	0.012415192
9	0xbd9d806c	-0.0769051
10	0x3d5a39a1	0.053277615
11	0x3d545e38	0.051847667
12	0xbd1cd360	-0.03828752
13	0xbc9c2a0e	-0.019063022
14	0xbbc9e708	-0.0061615743
15	0x3d75e77b	0.06003521
16	0x3d0e3ae8	0.034724146
17	0xbdacb38b	-0.084326826
18	0xbba2bf21	-0.004966632
19	0x3c7ab96e	0.015302999
20	0x3d399312	0.045306273
21	0xbd0d96ba	-0.034567572
22	0xbda534bf	-0.08066701
23	0xbd4f2475	-0.050571878
24	0x3d0bb3de	0.03410708
25	0x3da2a1e1	0.07941032
26	0x3d90766b	0.070538364
27	0xbc1f1d3b	-0.009711559
28	0x3df32f17	0.11874216
29	0x3d6a6283	0.057222854
30	0x3cb55df3	0.022139525
31	0xbcc8ac36	-0.02449618

context_transformer_0/bottleneck_input/norm/mul f4 [32, 32]
0	0xbc6550f7	-0.013996354
1	0xbe876f3d	-0.26452056
2	0xbdb9b9a8	-0.09068614
3	0xbe5eee4e	-0.21770594
4	0xbe120b9d	-0.14262243
5	0x3e4e5926	0.20151195
6	0x3dd2293a	0.102617696
7	0xbe68eb61	-0.2274604
8	0x3d8e1c5d	0.069390036
9	0x3e9e2670	0.308887
10	0xbdb92126	-0.09039526
11	0x3b7e60bc	0.0038814982
12	0xbbf22fdd	-0.0073909597
13	0x3daf148f	0.08548843
14	0x3cfccbdf	0.030858932
15	0x3e539cf9	0.20665349
16	0x3e6be355	0.23035939
17	0xbe8976a3	-0.26848325
18	0xbe372f78	-0.17889202
19	0x3cf446dc	0.029818945
20	0xbdce1bbf	-0.10063886
21	0x3da5ebff	0.08101653
22	0x3e649de1	0.22325851
23	0xbe8b99c3	-0.27265748
24	0xbebe080f	-0.37115523
25	0x3daf92c9	0.08572919
26	0x3ed08f89	0.4073451
27	0xbe3a6988	-0.1820432
28	0x3dba5164	0.09097555
29	0xbd0547b1	-0.032539073
30	0x3e61adf1	0.2203901
31	0xbde71e7f	-0.112851135
32	0x3ce8bdaa	0.028410751
33	0x3e5baee2	0.21453431
34	0x3e52c75b	0.2058386
35	0x3ddd4d76	0.1080579
36	0xbc8665b2	-0.016405914
37	0x3d896b71	0.06709946
38	0x3e35783f	0.17721651
39	0xbcf183ca	-0.029481787
40	0x3e264c84	0.16240126
41	0xbda75883	-0.08171179
42	0x3dbdf76d	0.09275708
43	0xbc9b7810	-0.018978149
44	0x3da02cf8	0.07821077
45	0x3e5cad2a	0.21550432
46	0xbe115a45	-0.14194591
47	0x3d74864f	0.0596984
48	0xbe37c74d	-0.17947121
49	0xbeaade75	-0.33372846
50	0xbc00fbb7	-0.0078725135
51	0xbe486eb1	-0.19573475
52	0xbe3a5454	-0.18196231
53	0x3e3ebaec	0.18625993
54	0x3e52082d	0.20510931
55	0xbd210d1e	-0.03931915
56	0x3d5b8a2f	0.05359858
57	0xbc672036	-0.014106801
58	0xbdf8cd1b	-0.12148496
59	0x3df31d1b	0.11870786
60	0x3d6c9ee5	0.05776872
61	0xbe656640	-0.22402287
62	0xbd242a1d	-0.040079225
63	0xbe48a77e	-0.19595143
64	0x3b4f36e2	0.0031618406
65	0xbebb9d79	-0.3664358
66	0xbdecf26b	-0.11569675
67	0xbe203913	-0.15646772
68	0x3c7b6a8f	0.01534523
69	0xbd4c29f4	-0.049844697
70	0xbe81384c	-0.25238264
71	0x3d6d5fb5	0.0579526
72	0xbe42419e	-0.18970343
73	0x3e3648c9	0.17801203
74	0x3dc06d57	0.09395855
75	0x3ed10a99	0.40828398
76	0xbdb9703a	-0.09054609
77	0x3e67d30c	0.22639102
78	0xbd990cb4	-0.07473126
79	0x3e327dbc	0.17430776
80	0xbe9e6748	-0.30938172
81	0xbeac0054	-0.33594
82	0xbe94c901	-0.29059604
83	0x3d9e6079	0.077332444
84	0x3e83db0c	0.25753057
85	0x3e0175e1	0.12642623
86	0xbeef1c42	-0.46701247
87	0x3d9c8546	0.076426074
88	0x3e80df75	0.25170484
89	0x3d9ac632	0.07557334
90	0x3e5deb86	0.21671876
91	0xbd849e43	-0.064754985
92	0x3e5cd95e	0.21567294
93	0xbe51b5b1	-0.20479466
94	0x3dd324a7	0.10309725
95	0x3da4e3fd	0.08051298
96	0xbe0c52ee	-0.1370351
97	0x3d076f92	0.033065386
98	0x3ed49fd9	0.41528204
99	0xbec3b7f5	-0.38226286
100	0xbe1a2b66	-0.15055618
101	0xbe3cc769	-0.18435444
102	0xbe568784	-0.20950133
103	0x3d0f1041	0.03492761
104	0x3df42880	0.11921787
105	0x3e3da49b	0.18519823
106	0xbdfd389b	-0.12364312
107	0xbea181d3	-0.3154436
108	0xbd24374e	-0.040091805
109	0xbebd6170	-0.369884
110	0xbdc2e8d9	-0.095170684
111	0xbe396e11	-0.18108393
112	0x3e8f398c	0.27973592
113	0x3e1f3ec0	0.15551281
114	0xbcfa2838	-0.030536756
115	0xbe613b3b	-0.21995251
116	0x3b5d1d85	0.003373952
117	0x3dff8ffd	0.124786355
118	0xbec9dd7c	-0.39426792
119	0x3e0755a4	0.13216263
120	0xbdf1b0e0	-0.11801314
121	0x3e11487e	0.1418781
122	0x3d6ae3f6	0.057346307
123	0xbe1a7254	-0.15082675
124	0x3e49cddc	0.19707435
125	0xbf23efa0	-0.64037514
126	0xbe0b6be6	-0.13615379
127	0xbe91d564	-0.28483117
128	0xbcdef257	-0.027215166
129	0xbddd5523	-0.10807254
130	0xbd5582a5	-0.052126545
131	0x3f38dcb6	0.7221178
132	0xbdf90e89	-0.121609755
133	0xbec8c5ae	-0.39213318
134	0x3efe96c2	0.49724394
135	0xbbe917d9	-0.0071134386
136	0x3e6aaf5c	0.22918457
137	0xbe56d78e	-0.20980665
138	0xbe29549b	-0.1653618
139	0xbe622744	-0.22085291
140	0x3eb30178	0.34962058
141	0xbe322b3f	-0.1739931
142	0x3b12eb4c	0.002241808
143	0x3f06a017	0.5258803
144	0xbe4a8715	-0.19778092
145	0x3ddcaca2	0.107751146
146	0x3e560aef	0.20902608
147	0x3f29f197	0.6638426
148	0x3de726ab	0.11286672
149	0xbe406eca	-0.18792263
150	0x3e9f23ed	0.31082097
151	0x3e54e966	0.2079216
152	0x3d10d68a	0.03536085
153	0xbdc0653a	-0.093943074
154	0x3f7748a9	0.96595246
155	0xbe2c95b8	-0.16853988
156	0xbe37a30e	-0.17933294
157	0xbed42496	-0.41434163
158	0xbe23495f	-0.15945958
159	0x3da3bd3d	0.07995079
160	0xbe4b465c	-0.19851059
161	0x3e389609	0.18025984
162	0x3d1e889b	0.038704496
163	0x3cdb01b5	0.026734212
164	0x3f07f1fa	0.531036
165	0xbe302cf9	-0.17204656
166	0xbe494944	-0.19656855
167	0x3e413b43	0.18870263
168	0x3dc8460c	0.097789854
169	0x3db71891	0.089402325
170	0xbd1d31b4	-0.03837748
171	0x3cc04d08	0.023474231
172	0xbecb7760	-0.39739513
173	0x3e481abc	0.19541448
174	0x3dacd761	0.08439518
175	0x3d93ba9d	0.07213328
176	0x3b6aeb95	0.0035845984
177	0xbe85ea5d	-0.26155367
178	0x3dca8f77	0.09890645
179	0xbe587fa3	-0.2114244
180	0xbe1e1e1d	-0.15441175
181	0x3e70e34c	0.23524207
182	0xbe8cc0d4	-0.27490866
183	0xbdd24992	-0.10267939
184	0xbcbda741	-0.023151042
185	0xbeae1bdf	-0.3400564
186	0x3e57afe9	0.21063198
187	0x3e6cadf7	0.23113237
188	0xbe1a8b70	-0.15092254
189	0x3e8363ba	0.25662023
190	0x3d45747e	0.0482068
191	0x3ca8494c	0.020542763
192	0xbd725701	-0.059165005
193	0xbdfb4c02	-0.12270357
194	0x3e94b218	0.29042125
195	0xbcfe5ad0	-0.031049162
196	0x3ebe363d	0.37150756
197	0xbdeab3b5	-0.11460058
198	0x3d42485e	0.047432296
199	0x3d13487d	0.035957802
200	0x3da3b96f	0.07994353
201	0xbdbba6d8	-0.09162682
202	0x3d1fbaf6	0.03899666
203	0x3db6a0b1	0.08917368
204	0xbe289db5	-0.1646641
205	0x3cc71ad7	0.02430479
206	0xbcc7c99f	-0.024388133
207	0xbd5d0d4c	-0.05396776
208	0x3db52917	0.08845728
209	0x3e1528a3	0.14566283
210	0xbe46b6b6	-0.19405636
211	0x3d55d74b	0.052207272
212	0xbe5752ef	-0.2102773
213	0xbc7bc06d	-0.015365702
214	0x3da83b7f	0.08214473
215	0xbe0fb31c	-0.14033169
216	0x3e9330f7	0.28748295
217	0x3de0e344	0.109808475
218	0xbc536075	-0.012901415
219	0xbe09d83a	-0.1346139
220	0xbb99ea6f	-0.004697136
221	0xbdb90307	-0.090337805
222	0xbc130a0f	-0.008974566
223	0xbdd7e007	-0.10540777
224	0xbd51413f	-0.051087614
225	0x3ea9367e	0.33049387
226	0x3d56ae4a	0.05241231
227	0x3eb95021	0.36193946
228	0x3f163154	0.5866902
229	0xbec02586	-0.37528628
230	0xbe8a92f2	-0.27065235
231	0x3dace150	0.084414124
232	0x3e0cc7eb	0.13748138
233	0xbf368b68	-0.7130647
234	0x3ec0bac7	0.376425
235	0xbe939027	-0.28820917
236	0x3eba7477	0.3641698
237	0x3e0811ea	0.13288084
238	0xbe4c9466	-0.19978485
239	0xbcb2fe54	-0.021849789
240	0x3e2514cb	0.16121213
241	0xbf03abc4	-0.5143397
242	0x3e934beb	0.28768858
243	0x3e8b5878	0.27215934
244	0x3e6528ba	0.22378817
245	0xbd8a7994	-0.067614704
246	0x3d9fc094	0.07800403
247	0x3d1d4825	0.03839888
248	0xbe4df4cc	-0.20112914
249	0xbd9adcf5	-0.075616755
250	0xbf1295bf	-0.57259744
251	0xbe158124	-0.14600044
252	0x3f27c39d	0.6553286
253	0x3f38389d	0.71961385
254	0xbeaf9b6f	-0.34298274
255	0xbe0390fb	-0.12848274

context_transformer_0/kq_shared_bottleneck/norm/mul;context_transformer_0/kq_shared_bottleneck/norm/add;context_transformer_0/attention/key/einsum/Einsum;context_transformer_0/attention/key/add;context_transformer_0/attention/value/einsum/Einsum;context_transformer_0/attention/key/add/ReadVariableOp/resource f4 [32]
0	0xbb607900	-0.003425181
1	0xbe15c6a4	-0.14626557
2	0x3dcb2816	0.09919755
3	0xbe36e93c	-0.1786241
4	0x3e7d495c	0.24735016
5	0xbd47691a	-0.048684217
6	0x3e2743af	0.16334413
7	0xbcb6ab4c	-0.022298478
8	0xbddad6c7	-0.10685497
9	0x3d3d7d11	0.04626185
10	0xbc5bff08	-0.013427503
11	0x3e51c183	0.20483975
12	0xbc80b09e	-0.015709218
13	0xbeabff96	-0.33593434
14	0xbef765bc	-0.48319805
15	0xbd4d8a37	-0.05018064
16	0x3db9a90d	0.09065447
17	0x3e14325b	0.14472334
18	0xbea06fbd	-0.3133525
19	0x3e3d0d2b	0.18462054
20	0x3c4993d4	0.012303311
21	0xbe430386	-0.19044313
22	0x3e029a5a	0.12754193
23	0xbdaf5d9a	-0.08562775
24	0xbd2d5d46	-0.04232528
25	0x3ddd7646	0.108135745
26	0x3dc8d9e6	0.09807186
27	0xbde59220	-0.11209512
28	0xbebd0c50	-0.36923456
29	0x3e0fcab6	0.14042172
30	0x3c3a1e67	0.011359788
31	0xbd14d3ad	-0.036334682

context_transformer_0/kq_shared_bottleneck/norm/mul;context_transformer_0/kq_shared_bottleneck/norm/add;context_transformer_0/attention/key/einsum/Einsum;context_transformer_0/attention/key/add;context_transformer_0/attention/value/einsum/Einsum;context_transformer_0/attention/key/add/ReadVariableOp/resource1 f4 [32, 32]
0	0xbd84c0be	-0.06482075
1	0xbd78d57b	-0.060750466
2	0xbde9a6ba	-0.11408754
3	0xbe2445ed	-0.160423
4	0x3dfa4e17	0.12221926
5	0x3debb151	0.1150843
6	0xbef0f129	-0.4705899
7	0xbdeb5534	-0.114908606
8	0x3ebd4386	0.3696558
9	0xbe1d89b9	-0.15384568
10	0x3d39b035	0.04533406
11	0xbbee6aef	-0.007275931
12	0x3e0a2189	0.13489355
13	0xbd1ac27f	-0.037783142
14	0x3d890f6c	0.066923946
15	0x3d97620b	0.07391747
16	0x3dc8acbb	0.09798571
17	0x3d8355b3	0.0641283
18	0xbd1846d3	-0.03717692
19	0x3eb05344	0.34438527
20	0x3dc7a9fc	0.09749219
21	0x3db496ac	0.08817801
22	0xbd9d2c01	-0.07674409
23	0xbd495991	-0.049157683
24	0xbb430213	-0.0029755875
25	0x3d94b961	0.07261921
26	0xbebe23f1	-0.37136796
27	0xbd0d9c44	-0.034572855
28	0xbe2f5d1b	-0.1712536
29	0xbeb4212a	-0.35181552
30	0xbe9b3e89	-0.30321148
31	0x3e096809	0.13418593
32	0x3da36d5a	0.079798415
33	0x3e4ba66e	0.19887707
34	0x3dd11f90	0.10211098
35	0x3e116b46	0.14201078
36	0xbe13786b	-0.14401405
37	0xbe3d0161	-0.18457557
38	0x3de36d58	0.1110484
39	0x3efc083e	0.49225038
40	0xbcee6e55	-0.029105345
41	0x3df808ed	0.121110775
42	0x3e98ac5d	0.29819003
43	0xbdf5643f	-0.11982011
44	0xbded1736	-0.11576693
45	0x3e7fc18c	0.24976176
46	0xbef9a120	-0.4875574
47	0xbe8e8d68	-0.2784226
48	0xbe091861	-0.13388206
49	0xbe49cc23	-0.19706778
50	0x3e52913e	0.20563218
51	0xbd7b5eca	-0.061369695
52	0xbe893bdd	-0.26803485
53	0x3d4f8693	0.05066545
54	0xbc4bd8f3	-0.012441861
55	0x3e4f5621	0.202477
56	0x3ee38ee1	0.44444945
57	0xbeebef25	-0.4608089
58	0x3dbf2078	0.09332365
59	0xbe22450b	-0.1584665
60	0xbe8b1ef7	-0.27172062
61	0x3edade75	0.42747846
62	0x3e800825	0.25006214
63	0xbd5e15b8	-0.05421993
64	0x3ea9cdd2	0.3316484
65	0x3c632b80	0.013865352
66	0x3d91a8c2	0.07112266
67	0x3e9a2771	0.30108216
68	0x3ca70d2a	0.02039202
69	0x3bfef29c	0.007780386
70	0x3e9ba3e3	0.30398473
71	0x3ddfa3ac	0.1091989
72	0xbeae89fe	-0.34089655
73	0x3e8ba64b	0.2727531
74	0x3e371399	0.1787857
75	0x3e81d825	0.25360218
76	0xbe837294	-0.25673354
77	0x3ca3dc6b	0.020002564
78	0x3df3f433	0.11911812
79	0x3e52cd47	0.2058612
80	0x39a44a29	0.0003133577
81	0xbd9f8f2e	-0.07790981
82	0xbd44db6d	-0.048060823
83	0xbe72d72b	-0.23714893
84	0xbc280ae7	-0.010256506
85	0xbdba8250	-0.091068864
86	0x3d949843	0.07255604
87	0x3e052d06	0.13005456
88	0x3d9d4f68	0.07681161
89	0xbeace189	-0.3376582
90	0x3ea4d25e	0.32191747
91	0xbe1c7e62	-0.15282586
92	0x3d1bc11b	0.038025957
93	0x3e9f47b5	0.31109396
94	0x3ea4d772	0.32195622
95	0xbecec83e	-0.40387148
96	0xbe059402	-0.13044742
97	0x3e341a1e	0.17588088
98	0x3e00c699	0.12575759
99	0x3c8b6645	0.01701654
100	0xbe66de3b	-0.22545712
101	0xbe70e6c3	-0.23525529
102	0x3e7ff720	0.24996614
103	0x3eb1bd19	0.34714583
104	0xbe239292	-0.15973881
105	0x3b40c3b7	0.002941353
106	0x3d4283a7	0.047488835
107	0xbe652bdc	-0.22380012
108	0x3ccda1b9	0.02510153
109	0x3e365e4b	0.17809407
110	0xbee4e728	-0.44707608
111	0xbeb48ff0	-0.35266066
112	0xbe326a46	-0.17423353
113	0xbda2f508	-0.07956892
114	0x3e5820dc	0.21106285
115	0xbe4939e1	-0.19650985
116	0xbe7d272d	-0.24721976
117	0x3cd9353f	0.026514648
118	0x3d39f272	0.04539723
119	0xbb91c4a1	-0.004448489
120	0x3e6f2720	0.23354769
121	0xbe0abd2b	-0.13548724
122	0x3e5200c3	0.20508103
123	0x3d8dfc46	0.06932883
124	0x3c94e113	0.01817373
125	0x3ed7b963	0.42133626
126	0x3ea1d05c	0.31604278
127	0x3e3f63ab	0.18690364
128	0x3e828275	0.25490156
129	0xbd6538ba	-0.0559623
130	0xbda01d9a	-0.07818146
131	0x3e2cb83f	0.1686716
132	0x3f0e7351	0.5564471
133	0x3e44eb87	0.19230472
134	0xbed9b8df	-0.42523858
135	0xbe18dffa	-0.1492919
136	0x3ee56088	0.4480021
137	0x3e8e7e7a	0.2783087
138	0x3e0c57f7	0.13705431
139	0x3ead4823	0.33844098
140	0xbe9e5441	-0.30923656
141	0xbd56b430	-0.052417934
142	0x3dd34658	0.103161514
143	0x3e635136	0.22198948
144	0x3dd2cd3e	0.10293053
145	0xbe1bb170	-0.15204406
146	0xbd8b0158	-0.06787366
147	0x3ef3d72b	0.47625098
148	0x3c7ba12f	0.015358253
149	0x3d82c0f6	0.06384461
150	0xbe7c6ced	-0.24650927
151	0x3e165546	0.14680967
152	0x3e0a3952	0.13498428
153	0x3d61ad92	0.05509717
154	0xbed6f74e	-0.41985554
155	0xbd005546	-0.031331323
156	0xbe781546	-0.24226865
157	0xbf08af72	-0.5339271
158	0xbeeb518d	-0.45960656
159	0xbe5d5cf0	-0.21617484
160	0xbdeb6fc9	-0.11495931
161	0x3dce9176	0.10086338
162	0x3cb416f8	0.021983609
163	0x3dbd2ab5	0.09236661
164	0xbed0a736	-0.40752572
165	0xbe320b29	-0.1738707
166	0x3e926b3e	0.28597444
167	0x3e8d2f6d	0.27575245
168	0xbe6bcc20	-0.23027086
169	0x3d96c805	0.073623694
170	0xbe045bbc	-0.12925619
171	0xbd29ec6f	-0.041485246
172	0x3d219386	0.03944733
173	0x3d0f0ab4	0.034922317
174	0xbe46e408	-0.19422925
175	0xbe10eff7	-0.1415404
176	0xbdc78d89	-0.097437926
177	0xbddb2961	-0.10701252
178	0x3df87064	0.12130812
179	0xbe53b917	-0.20676075
180	0xbe383b19	-0.17991294
181	0x3c8000bc	0.01562535
182	0x3e076093	0.13220434
183	0xbe67fdbe	-0.22655389
184	0x3ddee6a4	0.10883835
185	0xbda8f29a	-0.082493976
186	0x3e59a0a8	0.21252692
187	0x3db39fec	0.08770737
188	0xbc001633	-0.007817793
189	0x3ef489f7	0.4776151
190	0x3ee22bed	0.44174138
191	0x3e566647	0.20937453
192	0x3ec0922a	0.37611514
193	0x3d3f9ee9	0.046782408
194	0x3cbe6aef	0.02324435
195	0x3ead5024	0.33850205
196	0xbd48f3c0	-0.049060583
197	0x3c3d8b76	0.011568895
198	0x3e40c615	0.18825562
199	0x3e65e2db	0.2244982
200	0xbe5e7533	-0.21724395
201	0x3ea556dd	0.32292834
202	0x3e27ca6b	0.1638581
203	0x3e95bc11	0.29245046
204	0xbe94f3f8	-0.29092383
205	0xbca338a0	-0.019924462
206	0x3db14d32	0.08657302
207	0x3e835d71	0.25657228
208	0x3d204272	0.039125867
209	0xbe8c4aca	-0.2740081
210	0xbd48ce2b	-0.049024742
211	0xbdb86cac	-0.090051025
212	0xbd16d59e	-0.036824815
213	0xbc83227b	-0.016007653
214	0x3dadee28	0.0849269
215	0xbc08f555	-0.008359273
216	0x3e59a49c	0.212542
217	0xbee8144f	-0.45327994
218	0x3e53113f	0.20612048
219	0xbe3ffb2f	-0.18748163
220	0xbe391850	-0.1807568
221	0x3ec5d9b1	0.38642648
222	0x3ebac617	0.36479256
223	0xbebdd931	-0.37079766
224	0x3dfb294e	0.122637376
225	0x3df73a43	0.120716594
226	0x3dea443a	0.114387944
227	0x3e60d7be	0.21957299
228	0xbdf5d064	-0.12002638
229	0xbe10d4c7	-0.14143668
230	0x3eb4e5b7	0.3533151
231	0x3e4dab7d	0.20084949
232	0xbe928b26	-0.28621787
233	0x3e149dd9	0.14513339
234	0x3d3c0c6f	0.045910295
235	0x3c245101	0.010029078
236	0xbe2a7aa9	-0.16648354
237	0x3deaca6b	0.114643894
238	0xbe2d2825	-0.16909845
239	0xbdb699e0	-0.08916068
240	0xbdb18daa	-0.086695984
241	0xbd9dfc4a	-0.07714136
242	0x3dbad5cf	0.09122812
243	0xbe70d231	-0.23517682
244	0xbe157079	-0.14593686
245	0xbd50f951	-0.051019017
246	0x3d256e35	0.040388305
247	0x3d873660	0.06602168
248	0x3de23f62	0.110472456
249	0xbe39b7eb	-0.18136565
250	0x3e89020c	0.26759374
251	0xbd47b403	-0.048755657
252	0x3d9f46f9	0.07777209
253	0x3ec51cf2	0.38498646
254	0x3e970f4b	0.29503855
255	0xbdf6bab9	-0.12047333

context_transformer_0/kq_shared_bottleneck/norm/mul;context_transformer_0/kq_shared_bottleneck/norm/add;context_transformer_0/attention/query/einsum/Einsum;context_transformer_0/attention/query/add;context_transformer_0/attention/value/einsum/Einsum;context_transformer_0/attention/query/add/ReadVariableOp/resource;context_transformer_0/attention/Mul;context_transformer_0/attention/Mul/y f4 [32]
0	0xbe33d13a	-0.17560282
1	0x3e549d47	0.20763122
2	0x3e1794b1	0.14802815
3	0x3e4a9dae	0.19786713
4	0xbe0fe916	-0.14053759
5	0x3e35524e	0.17707178
6	0x3e2ddc0e	0.16978475
7	0x3e3917f4	0.18075544
8	0xbd9fac78	-0.07796568
9	0x3d8fa753	0.070143364
10	0x3d903d20	0.07042909
11	0x3daa12f3	0.083043955
12	0xbd91390a	-0.070909575
13	0xbe067150	-0.13129163
14	0xbe0adab0	-0.13559985
15	0xbe150590	-0.14552903
16	0x3db014bc	0.08597705
17	0x3e3b985e	0.18319842
18	0xbe4381a3	-0.19092421
19	0x3e0cf418	0.1376499
20	0xbd8e2669	-0.0694092
21	0xbe7909ee	-0.24320194
22	0x3dcc314d	0.09970341
23	0xbe35c318	-0.17750204
24	0x3d814429	0.06311829
25	0xbe6e0360	-0.23243475
26	0xbe4fc3a9	-0.20289482
27	0x3e3b3602	0.18282321
28	0xbe0c3da2	-0.13695386
29	0xbe65cff9	-0.22442617
30	0xbe70298c	-0.23453349
31	0xbe85a57a	-0.2610281

context_transformer_0/kq_shared_bottleneck/norm/mul;context_transformer_0/kq_shared_bottleneck/norm/add;context_transformer_0/attention/query/einsum/Einsum;context_transformer_0/attention/query/add;context_transformer_0/attention/value/einsum/Einsum;context_transformer_0/attention/query/add/ReadVariableOp/resource;context_transformer_0/attention/Mul;context_transformer_0/attention/Mul/y1 f4 [32, 32]
0	0xbdbac7fc	-0.09120175
1	0x3d215bdd	0.03939425
2	0x3c7f330c	0.015576135
3	0xbd5d5ad2	-0.05404169
4	0xbd983cd6	-0.074334785
5	0xbc825e38	-0.015914068
6	0xbbb9e02b	-0.005672475
7	0x3d619096	0.05506953
8	0x3d93b0b7	0.0721144
9	0xbd867da7	-0.06566935
10	0x3cb91de7	0.022597266
11	0xbe0aa946	-0.13541135
12	0x3d3a4c06	0.045482658
13	0x3d0f40dc	0.034973964
14	0xbd644c25	-0.05573668
15	0xba78dc83	-0.0009493308
16	0xbd06ed98	-0.03294143
17	0x3c98f93b	0.01867353
18	0x3cd86f47	0.026420249
19	0x3dd7e982	0.10542585
20	0xbda40c1b	-0.080101214
21	0xbb48931a	-0.0030605257
22	0x3cb8aaa1	0.0225423
23	0xbc17a2eb	-0.009255151
24	0x3dee11b1	0.11624468
25	0xbd9a12bb	-0.07523104
26	0xbd1ee7e1	-0.038795356
27	0x3c86ed27	0.016470505
28	0xbd23a685	-0.039953727
29	0xbdbc90d5	-0.09207312
30	0xbe0aa03f	-0.13537692
31	0x3d137b2c	0.036006138
32	0x3d3b94b1	0.0457961
33	0xbd54dac9	-0.051966462
34	0xbd819fc0	-0.06329298
35	0x3dafe379	0.08588309
36	0x3e13a702	0.14419177
37	0x3d22eae3	0.039774787
38	0xbe104ad8	-0.1409105
39	0xbc3dabf2	-0.0115766395
40	0x3e157b6f	0.14597867
41	0x3d7b1563	0.061299693
42	0xbdb2115e	-0.08694719
43	0x3daf2a8f	0.08553039
44	0xbd81844b	-0.06324061
45	0xbd1851ff	-0.037187573
46	0x3c2b11dd	0.010441271
47	0x3c458aaa	0.012056986
48	0x3d7f5349	0.062335286
49	0xbd94db81	-0.072684295
50	0xbd56b789	-0.052421127
51	0x3ddf5994	0.109057575
52	0x3d688092	0.05676324
53	0x3db3c59f	0.087779276
54	0xbe1cafcf	-0.1530144
55	0xbd987cd1	-0.07445682
56	0xbd5e781d	-0.054313768
57	0x3df28ab5	0.118428625
58	0xbdd6b43c	-0.10483596
59	0x3c917f24	0.01776082
60	0xbe225a29	-0.15854706
61	0xbd4580e8	-0.048218638
62	0xbd1e41fa	-0.03863714
63	0x3d9336f1	0.071882136
64	0x3e16eea6	0.14739475
65	0xbd1d3fe0	-0.038390994
66	0xbcf171ec	-0.029473267
67	0x3e57fdf9	0.21092977
68	0x3de38480	0.11109257
69	0x3cd947fd	0.026523584
70	0xbc5c4b81	-0.013445736
71	0xbc242069	-0.010017493
72	0xbcb59ee7	-0.022170497
73	0x3d4a8a6a	0.04944841
74	0xbb0b31a5	-0.0021239307
75	0x3e13c722	0.14431432
76	0xbd3d9830	-0.046287715
77	0xbcdf7b91	-0.0272806
78	0x3d718787	0.05896714
79	0x3dbfcbcb	0.09365042
80	0x3d51a9f8	0.051187485
81	0xbc2da419	-0.010598206
82	0xbd5c3933	-0.053765487
83	0xbdb195a8	-0.08671123
84	0x3dafb3e5	0.08579234
85	0x3ce6e942	0.028187398
86	0xbd808c9d	-0.0627682
87	0x3c33780e	0.010953916
88	0xbdafab62	-0.085776106
89	0xbbc31faf	-0.0059547047
90	0x3d3c7615	0.04601105
91	0xbe22c4a8	-0.15895331
92	0xbd77f7c8	-0.060539037
93	0x3cef94b8	0.02924572
94	0x3d18588e	0.037193827
95	0xbe2868c2	-0.16446212
96	0xbcd9eb67	-0.026601506
97	0xbd1d70bc	-0.03843759
98	0xbcf97f4e	-0.030456211
99	0xbd9d960f	-0.07694637
100	0x3da80be7	0.08205395
101	0x3c729bd9	0.014807665
102	0xbda18b2b	-0.07887872
103	0xbd306794	-0.04306753
104	0x3d5d8a74	0.054087117
105	0x3db75180	0.08951092
106	0xbdad6622	-0.08466746
107	0x3dc0fd44	0.094233066
108	0xbd1ded4c	-0.038556382
109	0xbd3e3b2c	-0.04644315
110	0x3d2def73	0.042464685
111	0xbd3b350e	-0.045704894
112	0x3cf285b4	0.02960477
113	0xbd876242	-0.06610538
114	0xbcac6cc0	-0.02104795
115	0x3c8fbca8	0.017546013
116	0x3d6bd87f	0.057579514
117	0x3d24c6ad	0.040228534
118	0xbd9bcf82	-0.07607938
119	0xbd2828fc	-0.04105471
120	0xbda5493b	-0.08070608
121	0x3e1c34ab	0.15254466
122	0xbd740999	-0.059579466
123	0x3dc9b1ea	0.098483875
124	0xbc756432	-0.014977502
125	0x3d58605c	0.05282627
126	0x3de6c49d	0.1126797
127	0x3e2d9324	0.16950661
128	0x3daaf684	0.083478004
129	0x3d700537	0.058598723
130	0x3d75a0c1	0.05996776
131	0x3e471c19	0.19444312
132	0x3d7b7a4f	0.06139594
133	0xbd4b2a99	-0.04960117
134	0xbd4894ad	-0.048969913
135	0x3dbe3309	0.09287078
136	0x3e11fedd	0.14257379
137	0x3b8f78b8	0.0043784045
138	0x3d9af32e	0.07565914
139	0xbd7b69c7	-0.061380174
140	0xbdb85528	-0.09000617
141	0x3db8297a	0.08992286
142	0xbe1184c0	-0.14210796
143	0xbd37334a	-0.044726647
144	0xbd91778c	-0.0710288
145	0xbd50cb4e	-0.050975136
146	0x3d5fa5a1	0.054601315
147	0x3e25cc12	0.16191128
148	0xbdec8998	-0.115496814
149	0xbcf56afc	-0.02995824
150	0x3b9345b3	0.004494393
151	0x3d73a2e9	0.059481535
152	0x3e2024be	0.15639016
153	0xbdf540df	-0.11975264
154	0xbd9d5077	-0.07681363
155	0xbe2f3282	-0.17109111
156	0xbe34c576	-0.1765345
157	0xbe2c3e86	-0.16820726
158	0xbe888e90	-0.26671267
159	0xbe545639	-0.20736016
160	0x3c2561ff	0.010094165
161	0xbcd48feb	-0.025947532
162	0xbd123109	-0.035691295
163	0xbc95f593	-0.018305575
164	0xbc9e1244	-0.01929582
165	0x3bd101a5	0.00637837
166	0xbb2050bd	-0.0024462186
167	0xbc0a9f96	-0.0084609
168	0xbd178e9e	-0.037001245
169	0x3db803db	0.0898511
170	0xbd891ecb	-0.066953264
171	0x3dd17a35	0.10228387
172	0xbbbc0b3f	-0.0057386453
173	0xbd35bb4f	-0.044368085
174	0x3d4b983a	0.04970572
175	0x3c29f07f	0.01037228
176	0x3d54cc2e	0.051952533
177	0xbd97b5d6	-0.07407729
178	0xbc934999	-0.01797943
179	0xbbf8a8f8	-0.007588502
180	0x3d8bc1bf	0.068240635
181	0x3d0bbdb6	0.03411647
182	0xbd0ed2a6	-0.03486886
183	0xbdb722fc	-0.089422196
184	0xbdb16437	-0.086616926
185	0x3d9611ce	0.07327615
186	0x3b89e239	0.004207876
187	0x3d7a00d8	0.06103596
188	0xbd201d2a	-0.039090313
189	0x3e055c47	0.13023482
190	0x3e43b62b	0.1911246
191	0x3e2b711b	0.16742365
192	0x3e1ecad0	0.15507054
193	0xbd066fe4	-0.03282155
194	0xbd3057f8	-0.043052644
195	0x3e991621	0.29899696
196	0x3db5c34f	0.08875143
197	0x3cca1003	0.024665838
198	0xbd023d5f	-0.03179681
199	0x3d07eee2	0.0331868
200	0x3c2205a9	0.009889045
201	0x3d972ef4	0.073820025
202	0xbcf0355c	-0.029322319
203	0x3e1fcc87	0.15605365
204	0xbd980a39	-0.07423825
205	0xbce51456	-0.027963798
206	0x3d107ad6	0.035273395
207	0x3e10340d	0.14082356
208	0x3d6a2323	0.057162415
209	0xbd44d2eb	-0.04805271
210	0xbd679c92	-0.0565458
211	0xbc983178	-0.018578276
212	0x3dac0302	0.08399011
213	0x3d91c995	0.07118527
214	0xbd8a3339	-0.06748051
215	0xbd3556ec	-0.04427235
216	0xbd9df34d	-0.077124216
217	0xbce7e757	-0.028308554
218	0x3c90710e	0.017632034
219	0xbe25f6fd	-0.162075
220	0xbe38b2c6	-0.18036947
221	0x3c609489	0.013707289
222	0x3cbd3463	0.023096269
223	0xbdf5e613	-0.12006774
224	0x3dab4e06	0.08364491
225	0xbd0d71da	-0.034532405
226	0xbcf75d7c	-0.030195944
227	0x3db4f228	0.0883525
228	0x3dc9b2a8	0.09848529
229	0x3c82fc64	0.01598949
230	0xbcaa7edc	-0.020812444
231	0xbce50447	-0.027956141
232	0xbac343ef	-0.0014897565
233	0x3d943df7	0.07238381
234	0xbcfd1068	-0.030891612
235	0x3dfdf442	0.12400104
236	0xbd3d6e7a	-0.046247937
237	0xbcf7ca66	-0.030247878
238	0x3d2f1dd6	0.042753063
239	0x3cbf2e33	0.02333746
240	0x3d05e0d3	0.032685112
241	0xbc2777b5	-0.0102214115
242	0xbd1c485f	-0.038154956
243	0xbd791314	-0.06080921
244	0x3d9b15ab	0.07572492
245	0x3ce48573	0.027895665
246	0xbd8191c8	-0.06326634
247	0xba3d6dde	-0.00072261493
248	0xbdb3497e	-0.08754252
249	0x3da8678e	0.082228765
250	0x3be0743c	0.0068497937
251	0xbc8feabc	-0.017567985
252	0xbce6c8ff	-0.028172014
253	0x3d5c4c2e	0.053783588
254	0x3db87165	0.09006003
255	0xbcad40ab	-0.021149

context_transformer_0/ffn_layer_0/intermediate_dense/einsum/Einsum;context_transformer_0/ffn_layer_0/intermediate_dense/Relu;context_transformer_0/ffn_layer_0/intermediate_dense/add f4 [32]
0	0xbe162680	-0.14663124
1	0xbe9fa403	-0.3117982
2	0xbe1177da	-0.14205876
3	0xbe016909	-0.12637724
4	0xbe5ed9a9	-0.21762718
5	0xbea29519	-0.31754377
6	0xbeb2ea6a	-0.3494447
7	0xbe8b85c2	-0.27250487
8	0xbebc8054	-0.36816657
9	0xbef2f65c	-0.47453582
10	0xbe04e3f7	-0.12977587
11	0xbe39c65c	-0.18142074
12	0xbe7ab8f8	-0.24484622
13	0xbe2ece60	-0.17070913
14	0xbe54b2ea	-0.20771375
15	0xbe659bd6	-0.22422728
16	0xbec0b3ab	-0.37637076
17	0xbe6598e1	-0.224216
18	0xbea327cc	-0.318663
19	0xbe1f3a84	-0.15549666
20	0xbe2f52d7	-0.17121445
21	0xbe4501f4	-0.19239026
22	0xbe90e6d5	-0.2830111
23	0xbe78b46f	-0.2428758
24	0xbea68518	-0.32523417
25	0xbec5b967	-0.38618013
26	0xbe714e1b	-0.23564951
27	0xbeaa99fc	-0.33320606
28	0xbea4d1af	-0.32191226
29	0xbdcd9d14	-0.10039726
30	0xbe0cb593	-0.1374114
31	0xbe071517	-0.13191639

context_transformer_0/attention/norm/mul;context_transformer_0/attention/norm/add;context_transformer_0/ffn_layer_0/intermediate_dense/einsum/Einsum;context_transformer_0/ffn_layer_0/intermediate_dense/Relu;context_transformer_0/ffn_layer_0/intermediate_dense/add f4 [32, 32]
0	0x3dfac673	0.122448824
1	0x3e83ea3c	0.25764644
2	0xbe3bc0e0	-0.18335295
3	0x3f111eaf	0.56687444
4	0x3e3a53d8	0.18196046
5	0xbe397ca5	-0.18113954
6	0xbec5cc74	-0.38632548
7	0x3d002e43	0.03129412
8	0x3dbd7537	0.092508726
9	0x3e6f2695	0.23354562
10	0x39ad3aeb	0.0003304103
11	0xbe0a44e2	-0.13502839
12	0xbe278e29	-0.16362824
13	0xbe5b40d6	-0.21411452
14	0x3eb4a6f7	0.35283634
15	0x3e7d084a	0.24710193
16	0x3e808cfa	0.25107557
17	0x3caa0af0	0.020757169
18	0x3e655264	0.22394711
19	0xbe0f2b3e	-0.1398134
20	0x3e9631e4	0.2933494
21	0xbe1247ba	-0.14285174
22	0x3e3866fe	0.18008038
23	0x3e7291e0	0.2368846
24	0xbe551310	-0.20808053
25	0xbe4b3ec6	-0.19848165
26	0x3e79f51b	0.24409907
27	0x3e099e6d	0.13439341
28	0x3d756369	0.059909258
29	0xbd8c3b38	-0.068472326
30	0xbe545de8	-0.20738947
31	0x3ee59bab	0.44845328
32	0xbe24c163	-0.16089396
33	0x3e08d943	0.13364129
34	0xbdda79e0	-0.10667777
35	0xbdc60194	-0.0966827
36	0xbe873963	-0.2641097
37	0x3ea2b057	0.31775162
38	0x3d9bcb3a	0.07607122
39	0xbe11ddfd	-0.14244838
40	0x3bc6810b	0.0060578636
41	0x3e3f26ac	0.18667096
42	0x3ebccfd2	0.36877304
43	0x3deac5b8	0.11463493
44	0xbe4633cf	-0.19355701
45	0x3ca9b384	0.020715483
46	0x3e96f8b9	0.29486635
47	0xbe5f8409	-0.21827711
48	0xbed59d9c	-0.4172181
49	0x3e49a660	0.19692373
50	0x3e7e7a97	0.24851452
51	0xbdc3c10b	-0.095583044
52	0x3ee33cbe	0.4438228
53	0xbe0e1829	-0.13876404
54	0x3e811362	0.252101
55	0x3e1a5f26	0.15075359
56	0xbd5704ac	-0.05249469
57	0xbe919e5f	-0.2844114
58	0x3d53a03b	0.05166648
59	0xbd6afebb	-0.057371836
60	0xbdf051db	-0.11734363
61	0x3e857851	0.26068357
62	0xbea4efe4	-0.32214272
63	0x3e5a03fb	0.21290581
64	0xbdcfba84	-0.10142997
65	0x3e9b6d88	0.30357003
66	0xbe576139	-0.21033181
67	0x3e47f1e0	0.19525862
68	0x3d1abca3	0.037777554
69	0x3e7cb1bd	0.24677177
70	0x3eaa00da	0.33203775
71	0xbe7b141d	-0.24519391
72	0xbea6517b	-0.3248404
73	0x3d46f531	0.048573676
74	0xbf05fb09	-0.52336174
75	0x3eb5a1a7	0.35474893
76	0x3e084ef4	0.13311368
77	0xbd80371a	-0.0626051
78	0x3df0a59c	0.117503375
79	0x3cccfa80	0.025021791
80	0xbda2dc38	-0.0795216
81	0x3e37728a	0.17914787
82	0x3e5582bc	0.20850652
83	0xbdfb66e3	-0.122754835
84	0xbe48c70f	-0.19607185
85	0xbc3a4ff2	-0.0113715995
86	0x3e3447fb	0.17605583
87	0x3e1c37f9	0.15255727
88	0x3e1fd493	0.15608434
89	0xbe6db7d3	-0.23214655
90	0x3e390710	0.180691
91	0x3ece2d1b	0.40268788
92	0x3db9410c	0.0904561
93	0xbdbfbd75	-0.09362308
94	0xbe01d108	-0.12677395
95	0x3e597364	0.21235424
96	0xbe536857	-0.20645271
97	0x3e2ade1f	0.16686295
98	0xbcfbf04b	-0.030754229
99	0xbe406163	-0.1878715
100	0xbe8b760d	-0.27238503
101	0x3e9909b3	0.29890212
102	0x3e09e168	0.13464892
103	0x3e21ee65	0.15813597
104	0xbe10289a	-0.14077988
105	0x3e07cf85	0.13262756
106	0xbe1351de	-0.14386699
107	0x3e946ce5	0.2898933
108	0xbddc752b	-0.107645355
109	0xbe96f9c2	-0.29487425
110	0xbdf8d6c9	-0.12150342
111	0x3e69d0cf	0.2283356
112	0x3ee1e068	0.4411652
113	0x3e4da12f	0.20081018
114	0x3e0fc776	0.14040932
115	0xbd8a2569	-0.06745417
116	0x3da47f87	0.080321364
117	0xbebf4877	-0.37359974
118	0x3c4a6baf	0.012354775
119	0x3e046f7b	0.12933151
120	0x3dcfda45	0.101490535
121	0x3c11822d	0.008881134
122	0xbe88f89d	-0.26752177
123	0x3d05a71e	0.03263008
124	0xbc4ff87e	-0.0126935225
125	0x3efb1e71	0.49046662
126	0xbcb0765c	-0.021540813
127	0xbea3d172	-0.31995732
128	0xbe5022e4	-0.2032581
129	0xbea0d0f1	-0.3140941
130	0x3e0a63d8	0.1351465
131	0xbdc91702	-0.098188415
132	0xbe32fb73	-0.17478733
133	0xbe4a4d98	-0.19756162
134	0xbda8747b	-0.08225342
135	0x3d13d687	0.03609326
136	0x3e0c133f	0.13679217
137	0x3e062a4f	0.13102077
138	0xbe34901f	-0.17633103
139	0xbd9b6791	-0.07588113
140	0x3dba8c4e	0.09108792
141	0x3e594e04	0.21221167
142	0x3d965c60	0.07341838
143	0x3b9bf7ea	0.0047597783
144	0x3e2d27ea	0.16909757
145	0x3eb6c8ca	0.35700065
146	0xbdcc1b3c	-0.09966132
147	0x3e01a36a	0.12659994
148	0xbe1132ec	-0.14179581
149	0xbed52d67	-0.41636202
150	0x3ebef559	0.3729656
151	0xbe170d61	-0.14751197
152	0x3e10fcb1	0.14158894
153	0x3d90d5c0	0.070720196
154	0x3e9e1208	0.30873132
155	0xbe9b4cd6	-0.3033206
156	0xbeaf2e3a	-0.34214956
157	0x3e65085f	0.22366475
158	0x3d351da3	0.044217717
159	0xbe9569b6	-0.29182214
160	0x3e93041f	0.28714082
161	0x3e0df079	0.13861264
162	0xbe1a358b	-0.15059488
163	0xbe38be2c	-0.18041295
164	0x3efc16d5	0.4923617
165	0xbb86cf8e	-0.004114098
166	0xbac0e515	-0.0014716709
167	0xbe916104	-0.2839433
168	0xbdb196b8	-0.086713254
169	0xbdc5e96c	-0.09663662
170	0xbd849734	-0.06474152
171	0xbe6b9735	-0.230069
172	0x3dad5479	0.084633775
173	0xbe62926e	-0.22126171
174	0xbd8dcd28	-0.06923896
175	0x3e407034	0.18792802
176	0x3e73f17f	0.23822592
177	0x3ece33d6	0.40273923
178	0x3e926efa	0.28600293
179	0x3d93a65e	0.072094664
180	0xbd86a713	-0.06574836
181	0xbb1524f0	-0.0022757612
182	0x3e66a4f5	0.22523864
183	0x3e89a264	0.26881707
184	0x3e8d2c24	0.2757274
185	0x3e88b292	0.26698738
186	0xbed8117a	-0.42200834
187	0x3e5bfbfc	0.21482843
188	0x3cbf2086	0.023330938
189	0x3d6015d7	0.054708328
190	0xbdbf0afc	-0.09328267
191	0xbd9a26b0	-0.0752691
192	0xbe4b0435	-0.19825824
193	0xbe28f50f	-0.16499732
194	0xbd5b5090	-0.053543627
195	0xbd326b52	-0.04355938
196	0x3dd485f6	0.103771135
197	0x3eac2f5b	0.3362988
198	0xbe8e18c6	-0.27753276
199	0xbe79e2a6	-0.24402866
200	0x3e2b5a0f	0.16733573
201	0xbe83a3e9	-0.2571099
202	0xbe698a70	-0.22806716
203	0xbe4a1afe	-0.19736859
204	0xbdb39609	-0.08768851
205	0xbdf71f12	-0.12066473
206	0x3e36ee04	0.17864233
207	0xbdca475e	-0.098768935
208	0x3eafd341	0.3434086
209	0xbcf3d063	-0.029762452
210	0x3de5782f	0.11204564
211	0xbdda422e	-0.10657154
212	0x3f4abd51	0.79195124
213	0x3d77adcd	0.060468484
214	0x3e0f4fda	0.13995305
215	0x3d961391	0.07327951
216	0xbe2e8ca1	-0.17045833
217	0x3e33e50e	0.17567846
218	0xbbb22736	-0.005436803
219	0x3d5679de	0.052362315
220	0xbe2134de	-0.15742823
221	0xbd8eddfc	-0.06975934
222	0xbe36616b	-0.178106
223	0x3e9f9810	0.31170702
224	0xbe077b7a	-0.13230696
225	0xbdf596e9	-0.119916745
226	0xbe71099b	-0.2353882
227	0xbf097985	-0.5370105
228	0x3dec39ba	0.11534448
229	0x3de2fd88	0.110835135
230	0xbd87a430	-0.06623113
231	0x3d505804	0.05086519
232	0xbe29762a	-0.16548982
233	0xbe0956ac	-0.13411969
234	0x3eca978f	0.39568755
235	0xbe8180d3	-0.25293598
236	0xbd354adb	-0.04426084
237	0xbe8e87e1	-0.27838042
238	0x3d8a726a	0.06760104
239	0x3d55374d	0.052054692
240	0x3eb44706	0.35210437
241	0x3e9d4d4d	0.30723038
242	0x3bf63d7c	0.0075146537
243	0x3e754b2c	0.23954457
244	0x3d73a0b5	0.059479434
245	0xbac327b7	-0.0014889155
246	0x3f03ea8c	0.51529765
247	0x3db0b28a	0.086278036
248	0x3e64d5b6	0.22347149
249	0x3e185d08	0.14879239
250	0x3dea7f78	0.11450094
251	0xbdd33868	-0.10313493
252	0xbe35caa3	-0.17753081
253	0xbc7b8cbd	-0.015353379
254	0x3ded3578	0.11582464
255	0x3d635dbe	0.05550932

context_transformer_0/ffn_layer_1/intermediate_dense/einsum/Einsum;context_transformer_0/ffn_layer_1/intermediate_dense/Relu;context_transformer_0/ffn_layer_1/intermediate_dense/add f4 [32]
0	0xbd83586f	-0.06413352
1	0xbe875263	-0.26430044
2	0xbea3a08b	-0.31958422
3	0xbeb66a74	-0.35628092
4	0xbe235588	-0.15950596
5	0xbe016131	-0.12634732
6	0xbde0bfb6	-0.10974066
7	0xbddb466c	-0.10706791
8	0xbe59e971	-0.21280457
9	0xbdd2423f	-0.10266542
10	0xbd9c5bc3	-0.0763469
11	0xbeb33fdd	-0.3500966
12	0xbde5ef8d	-0.11227331
13	0xbe552c83	-0.20817761
14	0xbe3210ac	-0.17389172
15	0xbdde392a	-0.10850747
16	0xbe09020a	-0.13379684
17	0xbdf1114b	-0.117708765
18	0xbe3d1853	-0.1846631
19	0xbeafb780	-0.34319687
20	0xbe8112a3	-0.2520953
21	0xbe183721	-0.1486478
22	0xbe899a06	-0.26875323
23	0xbde6a5be	-0.112620816
24	0xbe98383d	-0.29730406
25	0xbe561547	-0.20906554
26	0xbd1bd13b	-0.038041335
27	0xbe6f7573	-0.23384647
28	0xbe09aa64	-0.13443905
29	0xbdde14fd	-0.10843847
30	0x3d017c41	0.03161264
31	0xbe467759	-0.19381465

context_transformer_0/ffn_layer_0/norm/mul;context_transformer_0/ffn_layer_0/norm/add;context_transformer_0/ffn_layer_1/intermediate_dense/einsum/Einsum;context_transformer_0/ffn_layer_1/intermediate_dense/Relu;context_transformer_0/ffn_layer_1/intermediate_dense/add f4 [32, 32]
0	0xbe4fbcaa	-0.20286813
1	0x3e575e72	0.21032122
2	0x3db74cd4	0.08950201
3	0x3eb2d2e4	0.34926522
4	0x3dc3f58e	0.0956832
5	0xbe89dd88	-0.26926827
6	0x3d845520	0.06461549
7	0xbe2e02b6	-0.16993222
8	0xbda79d62	-0.08184315
9	0xbd99f778	-0.07517904
10	0xbbd31fd8	-0.006443005
11	0xbea9d604	-0.33171093
12	0x3d51e492	0.051243372
13	0x3e03c9dd	0.12869973
14	0x3eb410ca	0.3516906
15	0xbe458a9b	-0.19291155
16	0xbdccf275	-0.100071825
17	0x3d88b37d	0.0667486
18	0xbe0b2dd2	-0.13591698
19	0xbeb50567	-0.35355684
20	0xbd86f2ee	-0.06589304
21	0x3d03cec7	0.03217962
22	0x3ded82f7	0.11597245
23	0xbdc6ecf2	-0.097131625
24	0x3e383fc1	0.1799307
25	0x3da1b7f4	0.078964144
26	0xbe47a512	-0.19496563
27	0x3e8758a9	0.2643483
28	0x3df3aca5	0.11898164
29	0xbe715f4b	-0.23571508
30	0xbd22a2bb	-0.039705973
31	0x3e7c46fa	0.2463645
32	0xbd4e765c	-0.050405845
33	0xbdec4377	-0.115363054
34	0xbed41269	-0.41420296
35	0x3ce68aa7	0.028142286
36	0xbeb61f52	-0.3557077
37	0xbccaeeae	-0.024772014
38	0xbcbbc9dd	-0.022923404
39	0x3dbeb7e3	0.09312417
40	0x3e1b8ada	0.15189686
41	0xbd87b767	-0.06626778
42	0xbe0d66fc	-0.13808817
43	0xbe878957	-0.2647197
44	0x3e916cb1	0.28403237
45	0xbd4f3016	-0.050582968
46	0xbe1317dc	-0.1436457
47	0x3e8a3ba5	0.2699863
48	0x3e6173cb	0.22016828
49	0xbd9e9931	-0.07744063
50	0x3da55e02	0.08074571
51	0x3e876fbb	0.2645243
52	0xbd8bd732	-0.068281546
53	0xbe932fe3	-0.28747472
54	0x3e1e606c	0.1546647
55	0xbd994c27	-0.07485228
56	0x3e45971a	0.19295922
57	0x3d2252fd	0.039629925
58	0xbd879f21	-0.06622148
59	0xbe573784	-0.21017271
60	0xbe30472f	-0.17214654
61	0x3dd22b6e	0.1026219
62	0x3e239a52	0.15976837
63	0x3ce51907	0.027966036
64	0x3e4b150f	0.19832252
65	0x3e1840e7	0.14868508
66	0xbeb01501	-0.34391025
67	0xbe137b01	-0.14402391
68	0x3b1f8226	0.002433905
69	0x3df11be8	0.11772901
70	0x3ca4565d	0.020060712
71	0x3d937a54	0.072010666
72	0xbedaa61a	-0.4270485
73	0x3e981db8	0.29710174
74	0x3ca140c9	0.019684212
75	0x3e8ad83f	0.27118108
76	0xbdd252b7	-0.10269683
77	0x3f069b10	0.52580357
78	0x3db06dc1	0.08614684
79	0x3d7692b1	0.06019849
80	0xbcd2c8c9	-0.025730507
81	0xbe720314	-0.23633987
82	0x3cff1a4d	0.03114047
83	0x3ccf4b62	0.0253045
84	0x3e331479	0.17488278
85	0xbeecad4d	-0.46225968
86	0x3dffc66c	0.12489018
87	0xbdb917dd	-0.09037755
88	0x3ebc5293	0.3678175
89	0xbea77b97	-0.3271148
90	0xbea87c37	-0.32907268
91	0x3e16ed2b	0.1473891
92	0xbe19962e	-0.14998695
93	0x3d22e1c3	0.039766084
94	0xbe7164c9	-0.23573603
95	0x3ee817a4	0.45330536
96	0xbca615d0	-0.020274073
97	0xbe9d8102	-0.30762488
98	0x3e3da3f1	0.1851957
99	0x3e8add8c	0.27122152
100	0xbc09f2b7	-0.008419684
101	0xbe4e604b	-0.2015392
102	0xbe751cc9	-0.23936762
103	0xbee94db3	-0.45567092
104	0xbe3722ca	-0.17884365
105	0x3e389a87	0.18027698
106	0x3d0f17f9	0.03493497
107	0xbe88a7e1	-0.2669058
108	0x3ad43696	0.0016190584
109	0x3ef9dae1	0.48799804
110	0xbdafdcae	-0.08587013
111	0xbb2eece1	-0.0026691484
112	0xbdfec2d5	-0.12439505
113	0xbdc906f6	-0.09815781
114	0xbc836f0b	-0.01604416
115	0x3e941598	0.28922725
116	0x3d04d62c	0.032430813
117	0xbe3e1c42	-0.18565467
118	0x3ecb2899	0.3967941
119	0x3e544db3	0.20732765
120	0xbe1feb68	-0.15617144
121	0x3daed9a8	0.085376084
122	0x3e41239e	0.18861243
123	0xbd07a687	-0.033117797
124	0xbdee7230	-0.11642873
125	0xbd4be977	-0.049783196
126	0x3d60fd09	0.054928813
127	0xbcaf15b1	-0.021372648
128	0xbe220583	-0.15822415
129	0x3e3b6f95	0.18304284
130	0xbe67c920	-0.22635317
131	0x3dfa662f	0.12226521
132	0x3e3887c8	0.18020546
133	0xbe0b6668	-0.13613284
134	0x3a64d8c4	0.00087298104
135	0x3e268581	0.16261865
136	0xbbd7f329	-0.0065902662
137	0xbdebf79d	-0.11521838
138	0xbe068a9a	-0.1313881
139	0x3caac81f	0.020847378
140	0x3d013c3e	0.031551592
141	0xbe0f5da6	-0.14000568
142	0x3e7ae0d4	0.24499828
143	0x3e5cae3e	0.21550843
144	0x3df23ea4	0.11828354
145	0xbd4df114	-0.05027874
146	0xbcd20caf	-0.025640814
147	0x3ea38ee7	0.31944963
148	0xbeae3d14	-0.34030974
149	0x3ceb8866	0.028751563
150	0xbb828be3	-0.003983961
151	0xbd0c43af	-0.034244236
152	0xbe279bd5	-0.16368039
153	0xbc0d71ad	-0.008633059
154	0x3e17ef43	0.14837365
155	0x3baea793	0.005330035
156	0xbe1a3938	-0.1506089
157	0xbe9860f7	-0.29761478
158	0x3e0abb9f	0.13548134
159	0xbe096c7b	-0.13420288
160	0xbe260681	-0.16213419
161	0xbd2e14b6	-0.04250022
162	0x3e846808	0.2586062
163	0xbe0fb68d	-0.14034481
164	0x3dc8e4e0	0.098092794
165	0x3ecba373	0.3977314
166	0xbe773c2d	-0.24144049
167	0x3dcc9108	0.099886
168	0xbdde011e	-0.10840057
169	0x3e401427	0.18757688
170	0xbd2a204f	-0.041534718
171	0x3d6ab5dd	0.057302345
172	0xbe752fc7	-0.23944007
173	0x3e42b427	0.19014035
174	0x3cbfb33a	0.023400892
175	0xbe84d71c	-0.25945365
176	0x3e9d6f3c	0.30748928
177	0x3e547c10	0.20750451
178	0x3d44a629	0.048010025
179	0x3b8151d1	0.003946521
180	0xbb5bac75	-0.003351954
181	0x3e37c934	0.17947847
182	0x3d850ac7	0.06496196
183	0x3e94b021	0.29040626
184	0x3e84b6d4	0.25920737
185	0x3ce0626f	0.027390687
186	0x3e862a49	0.26204136
187	0x3e6d46b6	0.23171505
188	0x3d413215	0.047166903
189	0xbdc4a9fc	-0.096027344
190	0x3dde592b	0.10856851
191	0x3dfdaaca	0.12386091
192	0x3e525e71	0.20543839
193	0x3c704e25	0.014667069
194	0x3dcdfa92	0.10057558
195	0xbe9fe1ed	-0.31227055
196	0xbd3e5021	-0.046463136
197	0x3ed9602e	0.42456192
198	0xbe82e7a8	-0.25567365
199	0xbe80138e	-0.2501492
200	0xbe3f3710	-0.18673348
201	0x3dce9526	0.100870416
202	0xbe1f1c8f	-0.15538238
203	0xbccdfac1	-0.025143983
204	0xbd501aa1	-0.050806645
205	0x3b9c9668	0.004778672
206	0xbeacf68c	-0.3378185
207	0x3e44a5f7	0.19203936
208	0xbeb063f4	-0.34451258
209	0xbde7c07f	-0.113160126
210	0x3e961a09	0.29316738
211	0x3e5d63f2	0.21620157
212	0x3e696874	0.22793752
213	0x3e9003f1	0.28128007
214	0x3e1d1751	0.15340926
215	0xbc415979	-0.011801117
216	0x3b8b4488	0.004250113
217	0xbdeeedb3	-0.11666431
218	0x3d8bc0b6	0.06823866
219	0xbbc44ba9	-0.0059904647
220	0xbe009b12	-0.12559155
221	0xbd915801	-0.070968635
222	0xbc5a0799	-0.0133074755
223	0x3e1b0788	0.15139592
224	0x3e6a5ce6	0.22887
225	0xbe9aa8bc	-0.3020686
226	0x3ca7bb34	0.020475008
227	0xbdbac0aa	-0.09118779
228	0xbc8f784a	-0.017513413
229	0x3dc4c076	0.096070215
230	0xbf0b9e85	-0.54538757
231	0xbec2d3ad	-0.3805212
232	0xbe9ddb70	-0.3083148
233	0x3e3c3bab	0.18382137
234	0x3dbc9c06	0.092094466
235	0x3d8b9597	0.068156414
236	0xbe2948b6	-0.16531643
237	0xbda5a48b	-0.08088025
238	0xbe0f6a91	-0.14005496
239	0x3d00c63c	0.03143905
240	0x3e5a0d5e	0.21294162
241	0x3e65199a	0.22373047
242	0x3d543794	0.051810816
243	0x3e38408f	0.17993377
244	0xbc3ae326	-0.0114066955
245	0x3e4ec771	0.20193268
246	0x3cb0d86e	0.021587577
247	0x3de032e1	0.109472044
248	0x3ec82649	0.3909171
249	0xbe33d6eb	-0.17562453
250	0x3e31e8b3	0.17373924
251	0xbd6cb2e0	-0.057787776
252	0xbdccdc9b	-0.10003015
253	0xbe6be8d0	-0.2303803
254	0xbd954c02	-0.07289888
255	0xbe423410	-0.18965173

context_transformer_0/ffn_layer_2/intermediate_dense/einsum/Einsum;context_transformer_0/ffn_layer_2/intermediate_dense/Relu;context_transformer_0/ffn_layer_2/intermediate_dense/add f4 [32]
0	0xbe710b2b	-0.23539416
1	0xbd198369	-0.037478838
2	0xbc492600	-0.012277126
3	0xbe7a92f9	-0.24470128
4	0xbe519be7	-0.20469628
5	0xbdf60f00	-0.1201458
6	0xbec55c38	-0.3854692
7	0xbe0bdfdc	-0.13659614
8	0xbddb344e	-0.10703336
9	0xbdba4755	-0.09095637
10	0x3d078c66	0.03309288
11	0xbe045296	-0.12922129
12	0xbe5d10a6	-0.21588382
13	0xbdb41456	-0.08792941
14	0xbe42e477	-0.19032465
15	0xbdebd26b	-0.115147434
16	0xbe1f9eef	-0.15587972
17	0xbddbe9e8	-0.107379735
18	0xbde426e2	-0.11140229
19	0xbdc6f12e	-0.0971397
20	0xbde69d92	-0.11260523
21	0xbd981cec	-0.074273914
22	0xbe25d64a	-0.16195026
23	0xbdc55bdc	-0.096366614
24	0xbe251b15	-0.16123612
25	0xbe32bc6f	-0.17454694
26	0xbe6417c1	-0.22274686
27	0x3d977018	0.07394427
28	0xbd93e6af	-0.07221734
29	0xbec23d5a	-0.37937433
30	0x3c9778c5	0.018490205
31	0xbe01a970	-0.12662292

context_transformer_0/ffn_layer_1/norm/mul;context_transformer_0/ffn_layer_1/norm/add;context_transformer_0/ffn_layer_2/intermediate_dense/einsum/Einsum;context_transformer_0/ffn_layer_2/intermediate_dense/Relu;context_transformer_0/ffn_layer_2/intermediate_dense/add f4 [32, 32]
0	0x3db18927	0.08668738
1	0x3cdbf2d1	0.026849182
2	0xbddf2f59	-0.10897703
3	0x3e1a9630	0.15096354
4	0x3e21909a	0.15777817
5	0xbd1c9eb7	-0.0382373
6	0x3e1a3879	0.15060605
7	0xbd9e14ea	-0.07718833
8	0x3e0de008	0.13854992
9	0xbdfdf7f8	-0.12400812
10	0xbd4266f9	-0.047461484
11	0xbe493711	-0.19649912
12	0x3e823132	0.25428158
13	0x3ab43535	0.0013748767
14	0xbce0a77a	-0.027423609
15	0xba178a37	-0.00057807885
16	0x3d9b2177	0.07574742
17	0xbe1d0b0d	-0.15336247
18	0xbdccd59d	-0.10001681
19	0xbe1f6acb	-0.15568082
20	0x3e8593dc	0.2608937
21	0x3e6a41fc	0.22876734
22	0x3cc740b5	0.024322847
23	0xbe78e7a2	-0.24307111
24	0x3da7dc6b	0.08196338
25	0x3ea8bb31	0.32955316
26	0x3bf2333e	0.0073913625
27	0x3dbed2f6	0.09317581
28	0xbe84964f	-0.25895926
29	0xbdc253f3	-0.09488668
30	0x3d9c70d6	0.07638709
31	0xbe52945b	-0.20564406
32	0xbd562a01	-0.05228615
33	0xbd7adb53	-0.06124432
34	0xbeb90faa	-0.36144763
35	0xbdb184f0	-0.08667934
36	0xbdf7b09b	-0.12094232
37	0xbeaedc9e	-0.34152693
38	0x3e930096	0.28711385
39	0x3da2d17e	0.07950114
40	0x3dbf3335	0.09335939
41	0xbdb849b5	-0.089984335
42	0xbbc4b731	-0.0060032834
43	0xbe273f05	-0.16332634
44	0x3ec466d6	0.38359708
45	0xbde8169e	-0.11332439
46	0x3e8fa189	0.2805293
47	0xbd3f5ebe	-0.046721213
48	0xbe119877	-0.14218317
49	0x3cf67294	0.030083932
50	0xbdd82cab	-0.10555395
51	0x3d8f57cc	0.06999168
52	0xbe487aea	-0.19578138
53	0xbc522e61	-0.01282844
54	0x3d68e7c8	0.05686167
55	0xbdc0aa1a	-0.09407444
56	0xbd21c0c5	-0.03949048
57	0xbceb15b4	-0.028696872
58	0x3e115100	0.14191055
59	0x3cfa7134	0.030571558
60	0xbdfdabf6	-0.123863146
61	0xbdac9750	-0.08427298
62	0xbc8f8e8b	-0.017524024
63	0x3d1c5dff	0.03817558
64	0xbd0f36b3	-0.034964275
65	0xbe515c1b	-0.20445292
66	0xbeca6ddc	-0.3953694
67	0xbdb7c0e9	-0.089723416
68	0xbe3a6342	-0.18201926
69	0x3e8f8e08	0.2803805
70	0xbdce234e	-0.100653276
71	0xbe3ff86a	-0.18747106
72	0xbe8e070e	-0.27739757
73	0xbe2312bc	-0.15925115
74	0x3eb12905	0.34601608
75	0x3dc9794b	0.09837588
76	0xbdefed04	-0.11715129
77	0xbc9dc801	-0.019260408
78	0x3e567af8	0.20945346
79	0xbdad94bb	-0.08475634
80	0xbe4fe7c7	-0.2030326
81	0x3dedb832	0.11607398
82	0x3e8013d8	0.2501514
83	0xbd543945	-0.05181243
84	0x3d623774	0.055228665
85	0x3dd7c71e	0.105360255
86	0x3d201a73	0.039087724
87	0x3e8bfd95	0.27341905
88	0x3e18e5f2	0.14931467
89	0xbd84652e	-0.06464611
90	0xbda61dae	-0.0811113
91	0xbe8070c9	-0.25086048
92	0xbd787c1f	-0.060665246
93	0xbe17f591	-0.1483977
94	0xbdded82b	-0.108810745
95	0xbe814720	-0.25249577
96	0xbe528e89	-0.20562185
97	0xbe2330b8	-0.15936553
98	0x3e6cda25	0.2313009
99	0x3dd651b8	0.10464805
100	0xbe6ffffa	-0.23437491
101	0x3e1e4f75	0.15459998
102	0x3d2b38e7	0.041802313
103	0xbdb53e6e	-0.08849798
104	0xbdd67e74	-0.10473338
105	0x3d95a25f	0.073063605
106	0x3d340269	0.04394761
107	0xbe31a9ea	-0.17349973
108	0xbad7533a	-0.0016428002
109	0x3e3e6733	0.18594055
110	0x3e348459	0.17628612
111	0x3e991d04	0.2990495
112	0x3d45cd78	0.048291653
113	0x3d01165b	0.03151546
114	0x3e893668	0.2679932
115	0xbcc62915	-0.024189511
116	0x3d348595	0.044072706
117	0x3cfbc1e9	0.030732112
118	0x3ee65387	0.449856
119	0x3dd8c99d	0.1058533
120	0xbda73e2e	-0.08166157
121	0xbe5f9b9b	-0.21836703
122	0x3d8de018	0.06927508
123	0x3d401afd	0.046900738
124	0xbe3dc0d9	-0.18530597
125	0x3e32b68d	0.1745245
126	0x3d28e41a	0.04123316
127	0xbcd47db0	-0.025938839
128	0x3cab331a	0.02089839
129	0x3e906997	0.2820556
130	0xbd97f0c2	-0.07418968
131	0xbe18493c	-0.14871687
132	0x3e275c58	0.1634382
133	0xbdac54b9	-0.08414597
134	0x3e2dd71a	0.16976586
135	0xbda1e41a	-0.07904835
136	0xbdd443c0	-0.10364485
137	0x3ea39061	0.3194609
138	0x3e2a4a13	0.1662982
139	0xbd28585e	-0.0410999
140	0xbe0f39a5	-0.13986833
141	0x3e098cec	0.13432664
142	0x3e29e998	0.16593015
143	0xbdee134b	-0.116247736
144	0x3e05954a	0.1304523
145	0xbe19429f	-0.1496682
146	0x3e1c5b9e	0.15269324
147	0xbc86d4ff	-0.016458986
148	0xbea2680f	-0.31720015
149	0xbe2f67d8	-0.17129457
150	0x3e8dacdc	0.27670944
151	0x3d7edb4f	0.062220868
152	0x3d8d1b1f	0.068899386
153	0xbda156c1	-0.07877875
154	0xbde7c50f	-0.11316883
155	0x3d39e2d1	0.045382325
156	0x3ce17b5b	0.02752464
157	0xbe85f950	-0.26166773
158	0xbe3fba00	-0.18723297
159	0x3ef92fdb	0.48669323
160	0x3cfbaece	0.030723002
161	0x3deeb383	0.11655333
162	0xbe91206f	-0.28345057
163	0xbd8c26e3	-0.068433546
164	0xbe372ba9	-0.17887749
165	0xbdc953d8	-0.09830445
166	0xbd45e470	-0.048313558
167	0x3d0ac7b3	0.033881854
168	0x3e648de7	0.22319756
169	0x3e867787	0.26263067
170	0xbc885cb9	-0.016645776
171	0xbd6668e3	-0.05625237
172	0x3e700331	0.23438717
173	0x3ccf9c0a	0.02534296
174	0x3da147b0	0.078750014
175	0x3d6bfe28	0.05761543
176	0xbc4773c2	-0.012173595
177	0xbe20b640	-0.15694523
178	0x3d8e402d	0.06945834
179	0x3e0fdef8	0.140499
180	0x3e53d7bc	0.20687765
181	0x3e3e4996	0.18582758
182	0x3e4d3c62	0.20042565
183	0x3e6c85ba	0.23097888
184	0xbe80440b	-0.25051913
185	0xbdefd479	-0.11710448
186	0x3e8385e2	0.25688082
187	0x3eb1c447	0.3472006
188	0x3dfae3c6	0.122504756
189	0x3e6647a3	0.22488265
190	0x3d074609	0.033025775
191	0xb9228873	-0.00015500355
192	0xbe3c7203	-0.18402867
193	0xbe3c4a70	-0.1838777
194	0xb78738f0	-1.6119768e-05
195	0x3e232089	0.1593038
196	0x3e53706f	0.20648359
197	0xbe36500e	-0.17803976
198	0xb9120f9c	-0.0001392946
199	0xbd586427	-0.052829888
200	0x3e25bbfd	0.16184993
201	0x3df53608	0.11973196
202	0xbcba6abe	-0.022755977
203	0x3e998281	0.2998238
204	0x3d69dd97	0.05709609
205	0x3c9e2f72	0.019309733
206	0xbd55e15a	-0.052216865
207	0x3bab8ca0	0.0052352697
208	0x3e5117b2	0.20419195
209	0xbcc3eda4	-0.023917027
210	0x3def6d34	0.11690751
211	0xbe49c85d	-0.19705339
212	0x3de9bba1	0.114127405
213	0x3c456f33	0.012050438
214	0x3e0f85dc	0.14015907
215	0xbdece359	-0.115668006
216	0x3d281477	0.04103514
217	0xbe8b86b4	-0.27251208
218	0xbe21a45c	-0.15785354
219	0x3ef58df2	0.47959858
220	0xbd83bb48	-0.064322054
221	0xbcd1f036	-0.025627237
222	0xbda6e328	-0.08148795
223	0x3d315bfc	0.043300614
224	0xbce2f5a7	-0.027705027
225	0xbe7588a7	-0.2397791
226	0x3e997f14	0.29979765
227	0xbe7ca238	-0.24671257
228	0xbee4ac1c	-0.4466256
229	0xbe34b329	-0.17646469
230	0xbd277155	-0.040879566
231	0xbda476a5	-0.08030442
232	0xbd392fa4	-0.04521145
233	0xbde295ba	-0.11063714
234	0x3e7c0bd0	0.24613881
235	0xbdf7b58e	-0.12095176
236	0x3e534820	0.20632982
237	0x3ebc632c	0.36794412
238	0x3e908e33	0.2823349
239	0x3e30120c	0.17194384
240	0x3d3f1ac1	0.046656374
241	0xbd0886c7	-0.03333166
242	0xbeaed416	-0.34146184
243	0x3e95c16b	0.2924913
244	0xbc3f755e	-0.011685697
245	0xbe34eb8c	-0.17667979
246	0x3e75006b	0.2392594
247	0xbe2ba89e	-0.16763541
248	0x3e45bef7	0.19311129
249	0x3deaab2c	0.1145843
250	0x3b9faaf1	0.0048726727
251	0xbe067bc5	-0.13133152
252	0xbd4521ef	-0.048128065
253	0x3cff6b85	0.031179199
254	0xbcfef570	-0.031122893
255	0x3ddf3e07	0.10900503

context_transformer_0/ffn_layer_3/intermediate_dense/einsum/Einsum;context_transformer_0/ffn_layer_3/intermediate_dense/Relu;context_transformer_0/ffn_layer_3/intermediate_dense/add f4 [32]
0	0xbdf7bdd3	-0.12096753
1	0xbd633a9c	-0.055475816
2	0xbe3e16fe	-0.18563458
3	0xbe13662a	-0.14394441
4	0xbe0dac47	-0.1383525
5	0x3bd0340a	0.00635386
6	0xbe296a77	-0.1654452
7	0xbdfc22b6	-0.12311308
8	0xbe598c0c	-0.2124483
9	0xbeacb724	-0.33733475
10	0xbdc07bb9	-0.09398598
11	0xbdce7f7e	-0.10082911
12	0xbdd99d94	-0.10625759
13	0xbe244832	-0.16043165
14	0xbe16279f	-0.14663552
15	0x3d751bfd	0.059841145
16	0xbdfce48a	-0.12348278
17	0xbdd643dc	-0.10462162
18	0xbe2734d4	-0.16328746
19	0xbeb27742	-0.34856611
20	0xbe38bc10	-0.1804049
21	0xbdd4dec5	-0.103940524
22	0xbdb358bd	-0.0875716
23	0xbddeec94	-0.108849674
24	0xbe59452b	-0.21217792
25	0xbea0125d	-0.3126401
26	0xbe2ed013	-0.17071562
27	0xbe91d945	-0.28486076
28	0xbd9f618c	-0.077822775
29	0xbdaf7082	-0.08566381
30	0xbe913749	-0.28362492
31	0xbd396135	-0.04525872
